data.pth (torch, 12202 bytes, 6 tensors)

l1.weight f4 [8, 236]
00000000: c7f1 debd f815 dfbd befd debd 9ccd 5dbd
00000010: 7cca 3abd 32d1 68bd 2104 013b fbc8 dfbd
00000020: c438 dfbd f013 dfbd 2938 fabd 1e90 1fbe
00000030: c3d3 2fbe 52e7 7e3c 05fb 1e3e c907 bbbd
00000040: b985 a9bd 7f73 aebd b52f d2bd 219b a9bd
00000050: 7b40 40be 4f01 f7bd 2f44 b8bd eef2 033d
00000060: 85a0 f0bc d098 323d f8b9 a9bd 67a7 1e3c
00000070: 8b30 f73c 0d70 6dbc 391f 3dbe 10c2 eb3d
00000080: 7dc7 12be 4f95 5a3c b363 1fbd 8a78 903b
00000090: 6b35 21be 0d4f f6bd 450f 2a3c 3786 eb3d
000000a0: 4c99 09bb 8e15 173e 99bd 8a3d 0d3d 01bd
000000b0: 7f24 c53d 6cc1 15bd 37f4 1bbe a670 adbd
000000c0: bb42 8ebd afa2 9bbd 7d22 42be d3e2 c0bd
000000d0: e178 92bd 0d78 e93d cdc1 913d 234a 1a3e
000000e0: ba3a 243e 0f0f 0b3e f1b3 033e 403e c63e
000000f0: 4b75 8e3d 8a9d 0d3e cbfc c53c fa8a ec3d
00000100: ad9a fe3d 2c9a ea3d e5e9 793c 2a74 153e
00000110: 90ed c73d 7e3c 053e 43d9 c13d 3162 2f3e
00000120: 8a84 3a3b 3cf5 a03c caf7 f53d 926a 8e3d
00000130: 6b4f 8a3d bc1d 7c3d b718 993d 9d4c ad3d
00000140: c406 e23d 603f 343e 5c3d 633d b9fb cf3d
00000150: d27b d23d 4d83 c33d 0e19 613d 182f c23d
00000160: 81a5 773d 90c7 ab3d cf3b 7f3c 62c6 0c3e
00000170: 4762 fc3d 2955 613c 9f19 953d 17fe 253b
00000180: 45ee 02bd 665e 423e f7c0 a93c 04e1 f03d
00000190: c7ac abbc b697 dd3d 1d4c 0f3d 9646 e13d
000001a0: 6679 f83d 77cd 29ba 9e79 273e 5763 023e
000001b0: 7175 ad3d 939e b33d 0594 433d ff2b a13d
000001c0: 65db ab3c 2d1b cf3d 1c87 833d 995f ed3d
000001d0: 4126 f23d 7a6b 013e 4117 053e 5830 ba3b
000001e0: 5f2a bf3d 6f79 ed3d 8d6f 013e 5e3f de3d
000001f0: f3b3 003e e70e 353e be22 0c3e 25e9 173d
00000200: 555c d23d 3b9d dc3d 2944 d63d 08b4 0a3e
00000210: d3a8 f63d ad05 e83d 56c8 e83d 4d77 f03d
00000220: a03d 163e 43a0 4e3d 3ed8 a63d efca 8e3d
00000230: dc8c d13d f978 783d 3fc3 95bc 835c 8c3d
00000240: 782f bf3d 8a30 133e 9ce1 253e ae24 dc3d
00000250: cc01 f73d 35a4 033e 00b9 013e 7ba5 bc3d
00000260: 7f2c 023e 09d4 163e a421 573d 06ec fc3d
00000270: 8b0f 183c 16c9 523d 5615 913d 99fc 2e3d
00000280: f2f0 883d 1460 7a3d f6c4 d73d 68a2 5c3d
00000290: 4ded 633b 3467 733d 9598 943e 6ca9 b33e
000002a0: 19b7 cebb 9f5b c43d ad99 3b3c eace 6b3c
000002b0: 3835 4f3d 57ea 203c 170b b03d 3db1 f03d
000002c0: 591a 803d 32d4 183e 50db dd3d 9583 c23d
000002d0: 03f3 2e3e afb5 d13d 3519 3d3e c1d4 c03d
000002e0: 6e59 513c 9177 9d3d 5015 7a3d 543a ac3d
000002f0: 3b0d 923d 1a19 653d 1d85 d43d c241 0c3e
00000300: 527d a73d 0ab3 023e b595 b1bc e647 bf3e
00000310: 9dd7 a4bc 5811 4d3d b13d 313d d77b cdbc
00000320: 0b4f 153e 6831 143e 6c97 073d b9d8 c03d
00000330: 8d7b d43d 64f9 c43d 5a46 8e3c f76a b83d
00000340: c6a4 8d3d 8419 1b3e 02ac 9c3b b2a1 9e3d
00000350: 97d6 173e 8063 c63d 8dba b73d a3e6 973d
00000360: 89d7 c33d 8ef0 c13d 9ea3 243e 9a84 993d
00000370: 3edd ab3d 8faf c53d 6443 3e3e 65cc b53d
00000380: 0a53 0fbc 4e12 eb3c 4dd3 0fbd 06e3 e0bd
00000390: 93e5 73bd c88a bfbc b092 7dbd 0403 42bd
000003a0: 3e53 91bb 7057 e1bd 7915 443c 8e2e 01bd
000003b0: e5ff d8bd ad89 dabd 0624 dabd 2ac6 c7bc
000003c0: 1177 a5bd dade 87bd 64e4 7bbd f1fc dabd
000003d0: d448 d9bd c2ca d9bd 0210 583e f1ca 943e
000003e0: 191e 533e 97cd da3d 53ff f8bc 3531 b63d
000003f0: dd68 ab3e 01d1 fb3d fb8d 6d3e eb31 653e
-0.10885959 -0.10892862 -0.10888241 -0.054151163 -0.04560326 -0.05684013 0.00196863 -0.10927006
-0.10899499 -0.10892475 -0.12217743 -0.1558232 -0.17170624 0.015558081 0.15525444 -0.09132344
-0.08277459 -0.08518123 -0.10263006 -0.082815416 -0.18774597 -0.120607965 -0.0899738 0.032214098
-0.029373417 0.043602765 -0.08287424 0.0096834665 0.030174514 -0.014492047 -0.18468942 0.11511624
-0.14333911 0.013341262 -0.03891344 0.0044089006 -0.15743034 -0.120267965 0.010379617 0.11500209
-0.0020995913 0.14754316 0.06774444 -0.031552363 0.09626102 -0.036561415 -0.1522988 -0.084687516
-0.069463216 -0.07599389 -0.18958469 -0.09418263 -0.07151962 0.11399851 0.07117043 0.15067343
0.16038027 0.13579963 0.12861611 0.38719368 0.069559656 0.13829628 0.024168393 0.11549945
0.12431846 0.11455187 0.015253519 0.14595094 0.09762108 0.13011357 0.094652675 0.17127301
0.0028460347 0.019648187 0.12010153 0.069539204 0.06753429 0.061551794 0.07475417 0.084618784
0.11036447 0.176023 0.05547844 0.10155434 0.10277523 0.09546528 0.054955535 0.09481639
0.06046057 0.08387673 0.015578224 0.13747552 0.123234324 0.013753214 0.072802775 0.0025328451
-0.031965513 0.18981323 0.020721896 0.11761668 -0.02095641 0.10819952 0.034984697 0.10999791
0.1213253 -0.0006477455 0.16354987 0.12733208 0.08469666 0.0877048 0.047748584 0.0786972
0.020978639 0.10112605 0.064222544 0.115904994 0.118237026 0.12638655 0.12997152 0.0056820326
0.093342535 0.11595427 0.1264021 0.1085193 0.12568645 0.17681466 0.13685128 0.03708758
0.10271517 0.10772177 0.10462219 0.13545239 0.120439194 0.113292076 0.11366336 0.11741505
0.14671946 0.050445806 0.08146714 0.069723 0.10231945 0.060662244 -0.018281577 0.06853583
0.09335226 0.14373985 0.16199344 0.107491836 0.120608896 0.12855609 0.12668228 0.092112504
0.12712286 0.14729322 0.052522317 0.123497054 0.0092810495 0.0514613 0.07084148 0.042721365
0.06686582 0.061126783 0.10535614 0.05386582 0.0034778893 0.059424594 0.2902266 0.35090196
-0.006308448 0.09587788 0.011450213 0.014392594 0.050587863 0.009821496 0.08595865 0.117525555
0.062550254 0.14924696 0.10832846 0.094977535 0.17084889 0.102397315 0.18466647 0.094155796
0.012777669 0.07688821 0.06105548 0.08409563 0.0713143 0.05593214 0.10376952 0.1369696
0.081782 0.1276361 -0.021677831 0.37359542 -0.020122344 0.05006537 0.043271724 -0.025083466
0.14580934 0.14471972 0.03310339 0.094163366 0.10375128 0.0961788 0.01736753 0.09004777
0.06916194 0.15146452 0.004781247 0.07745685 0.14827953 0.09686947 0.089711286 0.07417037
0.095625944 0.0946971 0.1607804 0.07495995 0.08391808 0.09652626 0.18580395 0.08876876
-0.008747825 0.028695252 -0.03511362 -0.10980801 -0.05954511 -0.023381606 -0.06190747 -0.047366157
-0.004434972 -0.110030055 0.01196801 -0.03153854 -0.10595683 -0.10670791 -0.10651402 -0.024386484
-0.08079351 -0.066343024 -0.061497107 -0.10692776 -0.10609594 -0.10634376 0.21099856 0.29061082
0.2061695 0.106837444 -0.030395186 0.08896104 0.33478442 0.12295724 0.23198693 0.22382323

l1.bias f4 [8]
00000000: 60f2 de3d 540c d93d f310 0b3f 62aa 953e
00000010: f7fa c23e 9d1b d23e 4771 753e 479d a83d
0.10886073 0.105980545 0.5432274 0.29231554 0.38082096 0.41036692 0.23968993 0.08233123

l2.weight f4 [8, 8]
00000000: df99 14bf 3ae3 f6be 5a66 373f f424 2b3f
00000010: ae09 57be 456a cb3d 73e8 da3e a83c 01bf
00000020: 44da 053f c338 a73e 42b0 e9be 47b7 043c
00000030: 60d1 053f 3d14 bc3e 41a2 4c3d 3671 023f
00000040: 0b10 b83e 2019 003e 9690 3b3f 2f93 ffbe
00000050: 23a1 b83e 3431 253f 2999 1cbf 88d1 13be
00000060: fec0 b2be 9551 dc3e ef22 f4be be95 9a3d
00000070: 0417 e33e 1e3a b03d 87e3 e63e 8c7c b6be
00000080: 510c 01bf aebd 0e3f 1ea2 f43e f423 a63e
00000090: ca63 febb 65b0 c23d 58c7 bb3e 4729 c8be
000000a0: f572 7ebe 09b3 8bbe 82f8 6f3f 0165 19bf
000000b0: 9866 4d3f 094f 4a3f c657 36bf c96a 01bf
000000c0: e30a 9b3d f50a f7be 672c 5f3e cb76 91be
000000d0: 697e 443f aaf7 603f e40b adbe 0977 1c3f
000000e0: d36c aa3e a7e1 a3be 22fc 71be a497 f63e
000000f0: 962c 3fbe 6024 e63e 0e87 d93e 5b30 af3e
-0.5804729 -0.48220235 0.7164055 0.6685326 -0.20999786 0.09932379 0.4275547 -0.5048318
0.5228617 0.32660493 -0.45642287 0.008100337 0.52272606 0.3673419 0.049959425 0.50953996
0.3594974 0.12509584 0.73267496 -0.4991698 0.36060438 0.64528203 -0.61171204 -0.14435399
-0.34912866 0.43030992 -0.47682902 0.07548092 0.44353497 0.08604835 0.45095465 -0.35641897
-0.5040942 0.5575818 0.47779936 0.32449305 -0.0077633606 0.09506301 0.36675525 -0.39093992
-0.2484854 -0.2728503 0.9373857 -0.59919745 0.8023467 0.7902685 -0.7122768 -0.50553566
0.07570436 -0.48250547 0.21794282 -0.28410944 0.76755387 0.87877905 -0.33798134 0.61119133
0.3328615 -0.32008097 -0.23631337 0.48162568 -0.18669352 0.44949627 0.4248585 0.3421658

l2.bias f4 [8]
00000000: fdcf 143f 5614 b23d a77b 003f 9bfa 5ebe
00000010: f9f3 f53e 131c 103f 65a7 983e d957 de3d
0.58129865 0.08695285 0.5018868 -0.21775286 0.480377 0.5629284 0.29815212 0.10856599

l3.weight f4 [4, 8]
00000000: a5fe 60bf 0e32 e53e 30a9 8ebd f518 babe
00000010: 692d debe 6078 b8be 3452 fe3e cd02 b03e
00000020: 1c0b 37bf 98c0 2c3e d6ec 0cbf 4f19 1f3f
00000030: 6183 a43e 9362 18bf c1d1 debe e3f8 0fbf
00000040: ec31 5f3d 1a6b dcbd 7faa 163f a1e5 03bf
00000050: e12c d43d 1b05 4d3f 0805 163f 28fa 44bf
00000060: 675c 2e3f 34e1 b7be 8986 b3be 8e56 f7be
00000070: 4da5 fe3e 511a fcbe be32 2ebf ca44 193d
-0.87888557 0.4476475 -0.06965864 -0.36347166 -0.4339402 -0.3602934 0.4967209 0.34377137
-0.71501327 0.16870344 -0.5504888 0.6214799 0.32131484 -0.5952541 -0.43519405 -0.56239146
0.05449097 -0.107626155 0.58853906 -0.5152226 0.103601225 0.80085915 0.5860143 -0.7694421
0.68109745 -0.35914004 -0.3506358 -0.48308223 0.4973549 -0.49238828 -0.68046176 0.037419118

l3.bias f4 [4]
00000000: 0dc2 ecbc 9974 d3be 6258 67be 79cb 063f
-0.028901124 -0.41299894 -0.22592309 0.52654225
